…
dir ___movies_ensemble_distill_2022/ed_diff_2022_sasrec-en-0.5-T-1.0-al-0.75_03-24_03:03_t3/teacher1_sasrec_logs/tb_vis does not exist! Create one.
WARNING [03-24 03:04:17] get_exist_path in utils:
dir ___movies_ensemble_distill_2022/ed_diff_2022_sasrec-en-0.5-T-1.0-al-0.75_03-24_03:03_t3/teacher1_sasrec_logs/checkpoint does not exist! Create one.
INFO    [03-24 03:04:17] load_state_from_given_path in utils:
checkpoint epoch: 31
INFO    [03-24 03:04:17] load_state_from_given_path in utils:
Loading model's parameters
INFO    [03-24 03:04:17] load_state_from_given_path in utils:
Loading optimizer's parameters
DEBUG   [03-24 03:04:17] _generate_teacher_trainer in EnsembleDistillSched:
teacher1_sasrec: 
SASRecModel(
  (item_embedding): Embedding(21036, 64, padding_idx=0)
  (position_embedding): Embedding(10, 64)
  (trm_encoder): TransformerEncoder(
    (layer): ModuleList(
      (0): TransformerLayer(
        (multi_head_attention): MultiHeadAttention(
          (query): Linear(in_features=64, out_features=64, bias=True)
          (key): Linear(in_features=64, out_features=64, bias=True)
          (value): Linear(in_features=64, out_features=64, bias=True)
          (attn_dropout): Dropout(p=0.35, inplace=False)
          (dense): Linear(in_features=64, out_features=64, bias=True)
          (LayerNorm): LayerNorm((64,), eps=1e-12, elementwise_affine=True)
          (out_dropout): Dropout(p=0.35, inplace=False)
        )
        (feed_forward): FeedForward(
          (dense_1): Linear(in_features=64, out_features=128, bias=True)
          (dense_2): Linear(in_features=128, out_features=64, bias=True)
          (LayerNorm): LayerNorm((64,), eps=1e-12, elementwise_affine=True)
          (dropout): Dropout(p=0.35, inplace=False)
        )
      )
      (1): TransformerLayer(
        (multi_head_attention): MultiHeadAttention(
          (query): Linear(in_features=64, out_features=64, bias=True)
          (key): Linear(in_features=64, out_features=64, bias=True)
          (value): Linear(in_features=64, out_features=64, bias=True)
          (attn_dropout): Dropout(p=0.35, inplace=False)
          (dense): Linear(in_features=64, out_features=64, bias=True)
          (LayerNorm): LayerNorm((64,), eps=1e-12, elementwise_affine=True)
          (out_dropout): Dropout(p=0.35, inplace=False)
        )
        (feed_forward): FeedForward(
          (dense_1): Linear(in_features=64, out_features=128, bias=True)
          (dense_2): Linear(in_features=128, out_features=64, bias=True)
          (LayerNorm): LayerNorm((64,), eps=1e-12, elementwise_affine=True)
          (dropout): Dropout(p=0.35, inplace=False)
        )
      )
    )
  )
  (LayerNorm): LayerNorm((64,), eps=1e-12, elementwise_affine=True)
  (dropout): Dropout(p=0.35, inplace=False)
  (loss_fct): CrossEntropyLoss()
)
INFO    [03-24 03:04:17] assert_model_device in utils:
model teacher1_sasrec has 5.39404296875 MB params.
INFO    [03-24 03:04:17] __init__ in BasicTrainer:
451328 iter per epoch
DEBUG   [03-24 03:04:17] generate_model in utils:
model_code_list=['sasrec']
INFO    [03-24 03:04:17] load_model_config in utils:
…
