…
WARNING [03-24 16:24:30] get_exist_path in utils:
dir ___movies_base_partial_2022/base_nextitnet-rate-0.8-seed-2001_03-24_16:23_t2/nextitnet_logs does not exist! Create one.
WARNING [03-24 16:24:30] get_exist_path in utils:
dir ___movies_base_partial_2022/base_nextitnet-rate-0.8-seed-2001_03-24_16:23_t2/nextitnet_logs/tb_vis does not exist! Create one.
WARNING [03-24 16:24:30] get_exist_path in utils:
dir ___movies_base_partial_2022/base_nextitnet-rate-0.8-seed-2001_03-24_16:23_t2/nextitnet_logs/checkpoint does not exist! Create one.
INFO    [03-24 16:24:30] __init__ in BasicSched:
NextItNet(
  (item_embedding): Embedding(21036, 64, padding_idx=0)
  (residual_blocks): Sequential(
    (0): ResidualBlock_b(
      (conv1): Conv2d(64, 64, kernel_size=(1, 3), stride=(1, 1))
      (ln1): LayerNorm((64,), eps=1e-08, elementwise_affine=True)
      (conv2): Conv2d(64, 64, kernel_size=(1, 3), stride=(1, 1), dilation=(2, 2))
      (ln2): LayerNorm((64,), eps=1e-08, elementwise_affine=True)
    )
    (1): ResidualBlock_b(
      (conv1): Conv2d(64, 64, kernel_size=(1, 3), stride=(1, 1))
      (ln1): LayerNorm((64,), eps=1e-08, elementwise_affine=True)
      (conv2): Conv2d(64, 64, kernel_size=(1, 3), stride=(1, 1), dilation=(2, 2))
      (ln2): LayerNorm((64,), eps=1e-08, elementwise_affine=True)
    )
    (2): ResidualBlock_b(
      (conv1): Conv2d(64, 64, kernel_size=(1, 3), stride=(1, 1))
      (ln1): LayerNorm((64,), eps=1e-08, elementwise_affine=True)
      (conv2): Conv2d(64, 64, kernel_size=(1, 3), stride=(1, 1), dilation=(2, 2))
      (ln2): LayerNorm((64,), eps=1e-08, elementwise_affine=True)
    )
    (3): ResidualBlock_b(
      (conv1): Conv2d(64, 64, kernel_size=(1, 3), stride=(1, 1))
      (ln1): LayerNorm((64,), eps=1e-08, elementwise_affine=True)
      (conv2): Conv2d(64, 64, kernel_size=(1, 3), stride=(1, 1), dilation=(2, 2))
      (ln2): LayerNorm((64,), eps=1e-08, elementwise_affine=True)
    )
    (4): ResidualBlock_b(
      (conv1): Conv2d(64, 64, kernel_size=(1, 3), stride=(1, 1))
      (ln1): LayerNorm((64,), eps=1e-08, elementwise_affine=True)
      (conv2): Conv2d(64, 64, kernel_size=(1, 3), stride=(1, 1), dilation=(2, 2))
      (ln2): LayerNorm((64,), eps=1e-08, elementwise_affine=True)
    )
  )
  (final_layer): Linear(in_features=64, out_features=64, bias=True)
  (loss_fct): CrossEntropyLoss()
  (reg_loss): RegLoss()
)
WARNING [03-24 16:24:30] get_path in utils:
Path is None
WARNING [03-24 16:24:30] load_state_from_given_path in utils:
Not given any path.
INFO    [03-24 16:24:30] assert_model_device in utils:
model nextitnet has 5.627685546875 MB params.
INFO    [03-24 16:24:30] __init__ in BasicTrainer:
360448 iter per epoch
…
