…
dir ___el_soft_2020/pop_nextitnet-T-3-al-0.5_04-01_00:26_0/student_nextitnet_logs does not exist! Create one.
WARNING [04-01 00:27:38] get_exist_path in utils:
dir ___el_soft_2020/pop_nextitnet-T-3-al-0.5_04-01_00:26_0/student_nextitnet_logs/tb_vis does not exist! Create one.
WARNING [04-01 00:27:38] get_exist_path in utils:
dir ___el_soft_2020/pop_nextitnet-T-3-al-0.5_04-01_00:26_0/student_nextitnet_logs/checkpoint does not exist! Create one.
WARNING [04-01 00:27:38] get_path in utils:
Path is None
WARNING [04-01 00:27:38] load_state_from_given_path in utils:
Not given any path.
DEBUG   [04-01 00:27:38] __init__ in DistillSched:
student model: 
NextItNet(
  (item_embedding): Embedding(29352, 64, padding_idx=0)
  (residual_blocks): Sequential(
    (0): ResidualBlock_b(
      (conv1): Conv2d(64, 64, kernel_size=(1, 3), stride=(1, 1))
      (ln1): LayerNorm((64,), eps=1e-08, elementwise_affine=True)
      (conv2): Conv2d(64, 64, kernel_size=(1, 3), stride=(1, 1), dilation=(2, 2))
      (ln2): LayerNorm((64,), eps=1e-08, elementwise_affine=True)
    )
    (1): ResidualBlock_b(
      (conv1): Conv2d(64, 64, kernel_size=(1, 3), stride=(1, 1))
      (ln1): LayerNorm((64,), eps=1e-08, elementwise_affine=True)
      (conv2): Conv2d(64, 64, kernel_size=(1, 3), stride=(1, 1), dilation=(2, 2))
      (ln2): LayerNorm((64,), eps=1e-08, elementwise_affine=True)
    )
    (2): ResidualBlock_b(
      (conv1): Conv2d(64, 64, kernel_size=(1, 3), stride=(1, 1))
      (ln1): LayerNorm((64,), eps=1e-08, elementwise_affine=True)
      (conv2): Conv2d(64, 64, kernel_size=(1, 3), stride=(1, 1), dilation=(2, 2))
      (ln2): LayerNorm((64,), eps=1e-08, elementwise_affine=True)
    )
    (3): ResidualBlock_b(
      (conv1): Conv2d(64, 64, kernel_size=(1, 3), stride=(1, 1))
      (ln1): LayerNorm((64,), eps=1e-08, elementwise_affine=True)
      (conv2): Conv2d(64, 64, kernel_size=(1, 3), stride=(1, 1), dilation=(2, 2))
      (ln2): LayerNorm((64,), eps=1e-08, elementwise_affine=True)
    )
    (4): ResidualBlock_b(
      (conv1): Conv2d(64, 64, kernel_size=(1, 3), stride=(1, 1))
      (ln1): LayerNorm((64,), eps=1e-08, elementwise_affine=True)
      (conv2): Conv2d(64, 64, kernel_size=(1, 3), stride=(1, 1), dilation=(2, 2))
      (ln2): LayerNorm((64,), eps=1e-08, elementwise_affine=True)
    )
  )
  (final_layer): Linear(in_features=64, out_features=64, bias=True)
  (loss_fct): CrossEntropyLoss()
  (reg_loss): RegLoss()
)
INFO    [04-01 00:27:38] assert_model_device in utils:
model student_nextitnet has 7.657958984375 MB params.
INFO    [04-01 00:27:38] assert_model_device in utils:
model teacher_pop has 3.814697265625e-06 MB params.
INFO    [04-01 00:27:38] __init__ in DistillTrainer:
457216 iter per epoch
INFO    [04-01 00:27:38] _set_current_routine in Routine:
…
