…
dir ___movies_dvae_2022/teacher_nextitnet-T-3.0-al-0.75-dal-0.75-sr-0.8_03-31_11:42_t21/auxiliary_nextitnet_logs/tb_vis does not exist! Create one.
WARNING [03-31 11:42:50] get_exist_path in utils:
dir ___movies_dvae_2022/teacher_nextitnet-T-3.0-al-0.75-dal-0.75-sr-0.8_03-31_11:42_t21/auxiliary_nextitnet_logs/checkpoint does not exist! Create one.
INFO    [03-31 11:42:50] load_state_from_given_path in utils:
checkpoint epoch: 23
INFO    [03-31 11:42:50] load_state_from_given_path in utils:
Loading model's parameters
INFO    [03-31 11:42:50] load_state_from_given_path in utils:
Loading optimizer's parameters
DEBUG   [03-31 11:42:50] _generate_auxliary_trainer in DVAEDistillSched:
auxiliary model: 
NextItNet(
  (item_embedding): Embedding(21036, 64, padding_idx=0)
  (residual_blocks): Sequential(
    (0): ResidualBlock_b(
      (conv1): Conv2d(64, 64, kernel_size=(1, 3), stride=(1, 1))
      (ln1): LayerNorm((64,), eps=1e-08, elementwise_affine=True)
      (conv2): Conv2d(64, 64, kernel_size=(1, 3), stride=(1, 1), dilation=(2, 2))
      (ln2): LayerNorm((64,), eps=1e-08, elementwise_affine=True)
    )
    (1): ResidualBlock_b(
      (conv1): Conv2d(64, 64, kernel_size=(1, 3), stride=(1, 1))
      (ln1): LayerNorm((64,), eps=1e-08, elementwise_affine=True)
      (conv2): Conv2d(64, 64, kernel_size=(1, 3), stride=(1, 1), dilation=(2, 2))
      (ln2): LayerNorm((64,), eps=1e-08, elementwise_affine=True)
    )
    (2): ResidualBlock_b(
      (conv1): Conv2d(64, 64, kernel_size=(1, 3), stride=(1, 1))
      (ln1): LayerNorm((64,), eps=1e-08, elementwise_affine=True)
      (conv2): Conv2d(64, 64, kernel_size=(1, 3), stride=(1, 1), dilation=(2, 2))
      (ln2): LayerNorm((64,), eps=1e-08, elementwise_affine=True)
    )
    (3): ResidualBlock_b(
      (conv1): Conv2d(64, 64, kernel_size=(1, 3), stride=(1, 1))
      (ln1): LayerNorm((64,), eps=1e-08, elementwise_affine=True)
      (conv2): Conv2d(64, 64, kernel_size=(1, 3), stride=(1, 1), dilation=(2, 2))
      (ln2): LayerNorm((64,), eps=1e-08, elementwise_affine=True)
    )
    (4): ResidualBlock_b(
      (conv1): Conv2d(64, 64, kernel_size=(1, 3), stride=(1, 1))
      (ln1): LayerNorm((64,), eps=1e-08, elementwise_affine=True)
      (conv2): Conv2d(64, 64, kernel_size=(1, 3), stride=(1, 1), dilation=(2, 2))
      (ln2): LayerNorm((64,), eps=1e-08, elementwise_affine=True)
    )
  )
  (final_layer): Linear(in_features=64, out_features=64, bias=True)
  (loss_fct): CrossEntropyLoss()
  (reg_loss): RegLoss()
)
INFO    [03-31 11:42:50] assert_model_device in utils:
model auxiliary_nextitnet has 5.627685546875 MB params.
INFO    [03-31 11:42:50] __init__ in BasicTrainer:
451328 iter per epoch
DEBUG   [03-31 11:42:50] generate_model in utils:
model_code_list=['prior']
INFO    [03-31 11:42:50] load_model_config in utils:
…
dir ___movies_dvae_2022/teacher_nextitnet-T-3.0-al-0.75-dal-0.75-sr-0.8_03-31_11:42_t21/teacher_nextitnet_logs/tb_vis does not exist! Create one.
WARNING [03-31 11:42:57] get_exist_path in utils:
dir ___movies_dvae_2022/teacher_nextitnet-T-3.0-al-0.75-dal-0.75-sr-0.8_03-31_11:42_t21/teacher_nextitnet_logs/checkpoint does not exist! Create one.
WARNING [03-31 11:42:57] get_path in utils:
Path is None
WARNING [03-31 11:42:57] load_state_from_given_path in utils:
Not given any path.
DEBUG   [03-31 11:42:57] _generate_teacher_trainer in DVAEDistillSched:
prior model: 
PriorModel(
  (observed_embedding): Embedding(21036, 64, padding_idx=0)
  (prior_item_embedding): Embedding(21036, 64, padding_idx=0)
)
DEBUG   [03-31 11:42:57] _generate_teacher_trainer in DVAEDistillSched:
teacher model: 
NextItNet(
  (item_embedding): Embedding(21036, 64, padding_idx=0)
  (residual_blocks): Sequential(
    (0): ResidualBlock_b(
      (conv1): Conv2d(64, 64, kernel_size=(1, 3), stride=(1, 1))
      (ln1): LayerNorm((64,), eps=1e-08, elementwise_affine=True)
      (conv2): Conv2d(64, 64, kernel_size=(1, 3), stride=(1, 1), dilation=(2, 2))
      (ln2): LayerNorm((64,), eps=1e-08, elementwise_affine=True)
    )
    (1): ResidualBlock_b(
      (conv1): Conv2d(64, 64, kernel_size=(1, 3), stride=(1, 1))
      (ln1): LayerNorm((64,), eps=1e-08, elementwise_affine=True)
      (conv2): Conv2d(64, 64, kernel_size=(1, 3), stride=(1, 1), dilation=(2, 2))
      (ln2): LayerNorm((64,), eps=1e-08, elementwise_affine=True)
    )
    (2): ResidualBlock_b(
      (conv1): Conv2d(64, 64, kernel_size=(1, 3), stride=(1, 1))
      (ln1): LayerNorm((64,), eps=1e-08, elementwise_affine=True)
      (conv2): Conv2d(64, 64, kernel_size=(1, 3), stride=(1, 1), dilation=(2, 2))
      (ln2): LayerNorm((64,), eps=1e-08, elementwise_affine=True)
    )
    (3): ResidualBlock_b(
      (conv1): Conv2d(64, 64, kernel_size=(1, 3), stride=(1, 1))
      (ln1): LayerNorm((64,), eps=1e-08, elementwise_affine=True)
      (conv2): Conv2d(64, 64, kernel_size=(1, 3), stride=(1, 1), dilation=(2, 2))
      (ln2): LayerNorm((64,), eps=1e-08, elementwise_affine=True)
    )
    (4): ResidualBlock_b(
      (conv1): Conv2d(64, 64, kernel_size=(1, 3), stride=(1, 1))
      (ln1): LayerNorm((64,), eps=1e-08, elementwise_affine=True)
      (conv2): Conv2d(64, 64, kernel_size=(1, 3), stride=(1, 1), dilation=(2, 2))
      (ln2): LayerNorm((64,), eps=1e-08, elementwise_affine=True)
    )
  )
  (final_layer): Linear(in_features=64, out_features=64, bias=True)
  (loss_fct): CrossEntropyLoss()
  (reg_loss): RegLoss()
)
INFO    [03-31 11:42:57] assert_model_device in utils:
model teacher_nextitnet has 5.627685546875 MB params.
INFO    [03-31 11:42:57] assert_model_device in utils:
model auxiliary_nextitnet has 5.627685546875 MB params.
INFO    [03-31 11:42:57] assert_model_device in utils:
model prior has 10.271484375 MB params.
…
