…
WARNING [02-26 22:22:44] get_exist_path in utils:
dir ___lfms_base_partial_2022/base_nextitnet-rate-0.8-seed-2001_02-26_22:22_0/nextitnet_logs does not exist! Create one.
WARNING [02-26 22:22:44] get_exist_path in utils:
dir ___lfms_base_partial_2022/base_nextitnet-rate-0.8-seed-2001_02-26_22:22_0/nextitnet_logs/tb_vis does not exist! Create one.
WARNING [02-26 22:22:44] get_exist_path in utils:
dir ___lfms_base_partial_2022/base_nextitnet-rate-0.8-seed-2001_02-26_22:22_0/nextitnet_logs/checkpoint does not exist! Create one.
INFO    [02-26 22:22:44] __init__ in BasicSched:
NextItNet(
  (item_embedding): Embedding(3647, 64, padding_idx=0)
  (residual_blocks): Sequential(
    (0): ResidualBlock_b(
      (conv1): Conv2d(64, 64, kernel_size=(1, 3), stride=(1, 1))
      (ln1): LayerNorm((64,), eps=1e-08, elementwise_affine=True)
      (conv2): Conv2d(64, 64, kernel_size=(1, 3), stride=(1, 1), dilation=(2, 2))
      (ln2): LayerNorm((64,), eps=1e-08, elementwise_affine=True)
    )
    (1): ResidualBlock_b(
      (conv1): Conv2d(64, 64, kernel_size=(1, 3), stride=(1, 1))
      (ln1): LayerNorm((64,), eps=1e-08, elementwise_affine=True)
      (conv2): Conv2d(64, 64, kernel_size=(1, 3), stride=(1, 1), dilation=(2, 2))
      (ln2): LayerNorm((64,), eps=1e-08, elementwise_affine=True)
    )
    (2): ResidualBlock_b(
      (conv1): Conv2d(64, 64, kernel_size=(1, 3), stride=(1, 1))
      (ln1): LayerNorm((64,), eps=1e-08, elementwise_affine=True)
      (conv2): Conv2d(64, 64, kernel_size=(1, 3), stride=(1, 1), dilation=(2, 2))
      (ln2): LayerNorm((64,), eps=1e-08, elementwise_affine=True)
    )
    (3): ResidualBlock_b(
      (conv1): Conv2d(64, 64, kernel_size=(1, 3), stride=(1, 1))
      (ln1): LayerNorm((64,), eps=1e-08, elementwise_affine=True)
      (conv2): Conv2d(64, 64, kernel_size=(1, 3), stride=(1, 1), dilation=(2, 2))
      (ln2): LayerNorm((64,), eps=1e-08, elementwise_affine=True)
    )
    (4): ResidualBlock_b(
      (conv1): Conv2d(64, 64, kernel_size=(1, 3), stride=(1, 1))
      (ln1): LayerNorm((64,), eps=1e-08, elementwise_affine=True)
      (conv2): Conv2d(64, 64, kernel_size=(1, 3), stride=(1, 1), dilation=(2, 2))
      (ln2): LayerNorm((64,), eps=1e-08, elementwise_affine=True)
    )
  )
  (final_layer): Linear(in_features=64, out_features=64, bias=True)
  (loss_fct): CrossEntropyLoss()
  (reg_loss): RegLoss()
)
WARNING [02-26 22:22:44] get_path in utils:
Path is None
WARNING [02-26 22:22:44] load_state_from_given_path in utils:
Not given any path.
INFO    [02-26 22:22:44] assert_model_device in utils:
model nextitnet has 1.38232421875 MB params.
INFO    [02-26 22:22:44] __init__ in BasicTrainer:
38592 iter per epoch
…
