…
dir ___lfms_soft_2022/pop_sasrec-T-9.0-al-0.5_02-25_13:31_t11/student_sasrec_logs does not exist! Create one.
WARNING [02-25 13:31:18] get_exist_path in utils:
dir ___lfms_soft_2022/pop_sasrec-T-9.0-al-0.5_02-25_13:31_t11/student_sasrec_logs/tb_vis does not exist! Create one.
WARNING [02-25 13:31:18] get_exist_path in utils:
dir ___lfms_soft_2022/pop_sasrec-T-9.0-al-0.5_02-25_13:31_t11/student_sasrec_logs/checkpoint does not exist! Create one.
WARNING [02-25 13:31:18] get_path in utils:
Path is None
WARNING [02-25 13:31:18] load_state_from_given_path in utils:
Not given any path.
DEBUG   [02-25 13:31:18] __init__ in DistillSched:
student model: 
SASRecModel(
  (item_embedding): Embedding(3647, 64, padding_idx=0)
  (position_embedding): Embedding(20, 64)
  (trm_encoder): TransformerEncoder(
    (layer): ModuleList(
      (0): TransformerLayer(
        (multi_head_attention): MultiHeadAttention(
          (query): Linear(in_features=64, out_features=64, bias=True)
          (key): Linear(in_features=64, out_features=64, bias=True)
          (value): Linear(in_features=64, out_features=64, bias=True)
          (attn_dropout): Dropout(p=0.35, inplace=False)
          (dense): Linear(in_features=64, out_features=64, bias=True)
          (LayerNorm): LayerNorm((64,), eps=1e-12, elementwise_affine=True)
          (out_dropout): Dropout(p=0.35, inplace=False)
        )
        (feed_forward): FeedForward(
          (dense_1): Linear(in_features=64, out_features=128, bias=True)
          (dense_2): Linear(in_features=128, out_features=64, bias=True)
          (LayerNorm): LayerNorm((64,), eps=1e-12, elementwise_affine=True)
          (dropout): Dropout(p=0.35, inplace=False)
        )
      )
      (1): TransformerLayer(
        (multi_head_attention): MultiHeadAttention(
          (query): Linear(in_features=64, out_features=64, bias=True)
          (key): Linear(in_features=64, out_features=64, bias=True)
          (value): Linear(in_features=64, out_features=64, bias=True)
          (attn_dropout): Dropout(p=0.35, inplace=False)
          (dense): Linear(in_features=64, out_features=64, bias=True)
          (LayerNorm): LayerNorm((64,), eps=1e-12, elementwise_affine=True)
          (out_dropout): Dropout(p=0.35, inplace=False)
        )
        (feed_forward): FeedForward(
          (dense_1): Linear(in_features=64, out_features=128, bias=True)
          (dense_2): Linear(in_features=128, out_features=64, bias=True)
          (LayerNorm): LayerNorm((64,), eps=1e-12, elementwise_affine=True)
          (dropout): Dropout(p=0.35, inplace=False)
        )
      )
    )
  )
  (LayerNorm): LayerNorm((64,), eps=1e-12, elementwise_affine=True)
  (dropout): Dropout(p=0.35, inplace=False)
  (loss_fct): CrossEntropyLoss()
)
INFO    [02-25 13:31:18] assert_model_device in utils:
model student_sasrec has 1.151123046875 MB params.
INFO    [02-25 13:31:18] assert_model_device in utils:
model teacher_pop has 3.814697265625e-06 MB params.
INFO    [02-25 13:31:18] __init__ in DistillTrainer:
48256 iter per epoch
…
