…
dir ___el_ensemble_distill_2020/ed_diff_2020_sasrec-en-0.5-T-9-al-0.75_04-01_00:31_0/teacher1_sasrec_logs/tb_vis does not exist! Create one.
WARNING [04-01 00:31:32] get_exist_path in utils:
dir ___el_ensemble_distill_2020/ed_diff_2020_sasrec-en-0.5-T-9-al-0.75_04-01_00:31_0/teacher1_sasrec_logs/checkpoint does not exist! Create one.
INFO    [04-01 00:31:33] load_state_from_given_path in utils:
checkpoint epoch: 34
INFO    [04-01 00:31:33] load_state_from_given_path in utils:
Loading model's parameters
INFO    [04-01 00:31:33] load_state_from_given_path in utils:
Loading optimizer's parameters
DEBUG   [04-01 00:31:33] _generate_teacher_trainer in EnsembleDistillSched:
teacher1_sasrec: 
SASRecModel(
  (item_embedding): Embedding(29352, 64, padding_idx=0)
  (position_embedding): Embedding(10, 64)
  (trm_encoder): TransformerEncoder(
    (layer): ModuleList(
      (0): TransformerLayer(
        (multi_head_attention): MultiHeadAttention(
          (query): Linear(in_features=64, out_features=64, bias=True)
          (key): Linear(in_features=64, out_features=64, bias=True)
          (value): Linear(in_features=64, out_features=64, bias=True)
          (attn_dropout): Dropout(p=0.35, inplace=False)
          (dense): Linear(in_features=64, out_features=64, bias=True)
          (LayerNorm): LayerNorm((64,), eps=1e-12, elementwise_affine=True)
          (out_dropout): Dropout(p=0.35, inplace=False)
        )
        (feed_forward): FeedForward(
          (dense_1): Linear(in_features=64, out_features=128, bias=True)
          (dense_2): Linear(in_features=128, out_features=64, bias=True)
          (LayerNorm): LayerNorm((64,), eps=1e-12, elementwise_affine=True)
          (dropout): Dropout(p=0.35, inplace=False)
        )
      )
      (1): TransformerLayer(
        (multi_head_attention): MultiHeadAttention(
          (query): Linear(in_features=64, out_features=64, bias=True)
          (key): Linear(in_features=64, out_features=64, bias=True)
          (value): Linear(in_features=64, out_features=64, bias=True)
          (attn_dropout): Dropout(p=0.35, inplace=False)
          (dense): Linear(in_features=64, out_features=64, bias=True)
          (LayerNorm): LayerNorm((64,), eps=1e-12, elementwise_affine=True)
          (out_dropout): Dropout(p=0.35, inplace=False)
        )
        (feed_forward): FeedForward(
          (dense_1): Linear(in_features=64, out_features=128, bias=True)
          (dense_2): Linear(in_features=128, out_features=64, bias=True)
          (LayerNorm): LayerNorm((64,), eps=1e-12, elementwise_affine=True)
          (dropout): Dropout(p=0.35, inplace=False)
        )
      )
    )
  )
  (LayerNorm): LayerNorm((64,), eps=1e-12, elementwise_affine=True)
  (dropout): Dropout(p=0.35, inplace=False)
  (loss_fct): CrossEntropyLoss()
)
INFO    [04-01 00:31:33] assert_model_device in utils:
model teacher1_sasrec has 7.42431640625 MB params.
INFO    [04-01 00:31:33] __init__ in BasicTrainer:
457216 iter per epoch
DEBUG   [04-01 00:31:33] generate_model in utils:
model_code_list=['sasrec']
INFO    [04-01 00:31:33] load_model_config in utils:
…
