…
dir ___lfms_dvae_2022/partial_nextitnet-T-9.0-al-0.75-dal-0.25-sr-0.8_02-28_23:46_t12/auxiliary_nextitnet_logs/tb_vis does not exist! Create one.
WARNING [02-28 23:46:59] get_exist_path in utils:
dir ___lfms_dvae_2022/partial_nextitnet-T-9.0-al-0.75-dal-0.25-sr-0.8_02-28_23:46_t12/auxiliary_nextitnet_logs/checkpoint does not exist! Create one.
INFO    [02-28 23:46:59] load_state_from_given_path in utils:
checkpoint epoch: 35
INFO    [02-28 23:46:59] load_state_from_given_path in utils:
Loading model's parameters
INFO    [02-28 23:46:59] load_state_from_given_path in utils:
Loading optimizer's parameters
DEBUG   [02-28 23:46:59] _generate_auxliary_trainer in DVAEDistillSched:
auxiliary model: 
NextItNet(
  (item_embedding): Embedding(3647, 64, padding_idx=0)
  (residual_blocks): Sequential(
    (0): ResidualBlock_b(
      (conv1): Conv2d(64, 64, kernel_size=(1, 3), stride=(1, 1))
      (ln1): LayerNorm((64,), eps=1e-08, elementwise_affine=True)
      (conv2): Conv2d(64, 64, kernel_size=(1, 3), stride=(1, 1), dilation=(2, 2))
      (ln2): LayerNorm((64,), eps=1e-08, elementwise_affine=True)
    )
    (1): ResidualBlock_b(
      (conv1): Conv2d(64, 64, kernel_size=(1, 3), stride=(1, 1))
      (ln1): LayerNorm((64,), eps=1e-08, elementwise_affine=True)
      (conv2): Conv2d(64, 64, kernel_size=(1, 3), stride=(1, 1), dilation=(2, 2))
      (ln2): LayerNorm((64,), eps=1e-08, elementwise_affine=True)
    )
    (2): ResidualBlock_b(
      (conv1): Conv2d(64, 64, kernel_size=(1, 3), stride=(1, 1))
      (ln1): LayerNorm((64,), eps=1e-08, elementwise_affine=True)
      (conv2): Conv2d(64, 64, kernel_size=(1, 3), stride=(1, 1), dilation=(2, 2))
      (ln2): LayerNorm((64,), eps=1e-08, elementwise_affine=True)
    )
    (3): ResidualBlock_b(
      (conv1): Conv2d(64, 64, kernel_size=(1, 3), stride=(1, 1))
      (ln1): LayerNorm((64,), eps=1e-08, elementwise_affine=True)
      (conv2): Conv2d(64, 64, kernel_size=(1, 3), stride=(1, 1), dilation=(2, 2))
      (ln2): LayerNorm((64,), eps=1e-08, elementwise_affine=True)
    )
    (4): ResidualBlock_b(
      (conv1): Conv2d(64, 64, kernel_size=(1, 3), stride=(1, 1))
      (ln1): LayerNorm((64,), eps=1e-08, elementwise_affine=True)
      (conv2): Conv2d(64, 64, kernel_size=(1, 3), stride=(1, 1), dilation=(2, 2))
      (ln2): LayerNorm((64,), eps=1e-08, elementwise_affine=True)
    )
  )
  (final_layer): Linear(in_features=64, out_features=64, bias=True)
  (loss_fct): CrossEntropyLoss()
  (reg_loss): RegLoss()
)
INFO    [02-28 23:46:59] assert_model_device in utils:
model auxiliary_nextitnet has 1.38232421875 MB params.
INFO    [02-28 23:46:59] __init__ in BasicTrainer:
48256 iter per epoch
DEBUG   [02-28 23:46:59] generate_model in utils:
model_code_list=['prior']
INFO    [02-28 23:46:59] load_model_config in utils:
…
dir ___lfms_dvae_2022/partial_nextitnet-T-9.0-al-0.75-dal-0.25-sr-0.8_02-28_23:46_t12/teacher_nextitnet_logs/tb_vis does not exist! Create one.
WARNING [02-28 23:46:59] get_exist_path in utils:
dir ___lfms_dvae_2022/partial_nextitnet-T-9.0-al-0.75-dal-0.25-sr-0.8_02-28_23:46_t12/teacher_nextitnet_logs/checkpoint does not exist! Create one.
WARNING [02-28 23:46:59] get_path in utils:
Path is None
WARNING [02-28 23:46:59] load_state_from_given_path in utils:
Not given any path.
DEBUG   [02-28 23:46:59] _generate_teacher_trainer in DVAEDistillSched:
prior model: 
PriorModel(
  (observed_embedding): Embedding(3647, 64, padding_idx=0)
  (prior_item_embedding): Embedding(3647, 64, padding_idx=0)
)
DEBUG   [02-28 23:46:59] _generate_teacher_trainer in DVAEDistillSched:
teacher model: 
NextItNet(
  (item_embedding): Embedding(3647, 64, padding_idx=0)
  (residual_blocks): Sequential(
    (0): ResidualBlock_b(
      (conv1): Conv2d(64, 64, kernel_size=(1, 3), stride=(1, 1))
      (ln1): LayerNorm((64,), eps=1e-08, elementwise_affine=True)
      (conv2): Conv2d(64, 64, kernel_size=(1, 3), stride=(1, 1), dilation=(2, 2))
      (ln2): LayerNorm((64,), eps=1e-08, elementwise_affine=True)
    )
    (1): ResidualBlock_b(
      (conv1): Conv2d(64, 64, kernel_size=(1, 3), stride=(1, 1))
      (ln1): LayerNorm((64,), eps=1e-08, elementwise_affine=True)
      (conv2): Conv2d(64, 64, kernel_size=(1, 3), stride=(1, 1), dilation=(2, 2))
      (ln2): LayerNorm((64,), eps=1e-08, elementwise_affine=True)
    )
    (2): ResidualBlock_b(
      (conv1): Conv2d(64, 64, kernel_size=(1, 3), stride=(1, 1))
      (ln1): LayerNorm((64,), eps=1e-08, elementwise_affine=True)
      (conv2): Conv2d(64, 64, kernel_size=(1, 3), stride=(1, 1), dilation=(2, 2))
      (ln2): LayerNorm((64,), eps=1e-08, elementwise_affine=True)
    )
    (3): ResidualBlock_b(
      (conv1): Conv2d(64, 64, kernel_size=(1, 3), stride=(1, 1))
      (ln1): LayerNorm((64,), eps=1e-08, elementwise_affine=True)
      (conv2): Conv2d(64, 64, kernel_size=(1, 3), stride=(1, 1), dilation=(2, 2))
      (ln2): LayerNorm((64,), eps=1e-08, elementwise_affine=True)
    )
    (4): ResidualBlock_b(
      (conv1): Conv2d(64, 64, kernel_size=(1, 3), stride=(1, 1))
      (ln1): LayerNorm((64,), eps=1e-08, elementwise_affine=True)
      (conv2): Conv2d(64, 64, kernel_size=(1, 3), stride=(1, 1), dilation=(2, 2))
      (ln2): LayerNorm((64,), eps=1e-08, elementwise_affine=True)
    )
  )
  (final_layer): Linear(in_features=64, out_features=64, bias=True)
  (loss_fct): CrossEntropyLoss()
  (reg_loss): RegLoss()
)
INFO    [02-28 23:46:59] assert_model_device in utils:
model teacher_nextitnet has 1.38232421875 MB params.
INFO    [02-28 23:46:59] assert_model_device in utils:
model auxiliary_nextitnet has 1.38232421875 MB params.
INFO    [02-28 23:46:59] assert_model_device in utils:
model prior has 1.78076171875 MB params.
…
