…
    "hidden_act": "relu",
    "layer_norm_eps": 1e-12,
    "initializer_range": 0.02,
    "loss_type": "CE"
}
WARNING [03-08 08:10:26] get_exist_path in utils:
dir ___yelp_base_2021/base_sasrec_03-08_08:10_0/sasrec_logs does not exist! Create one.
WARNING [03-08 08:10:26] get_exist_path in utils:
dir ___yelp_base_2021/base_sasrec_03-08_08:10_0/sasrec_logs/tb_vis does not exist! Create one.
WARNING [03-08 08:10:26] get_exist_path in utils:
dir ___yelp_base_2021/base_sasrec_03-08_08:10_0/sasrec_logs/checkpoint does not exist! Create one.
INFO    [03-08 08:10:26] __init__ in BasicSched:
SASRecModel(
  (item_embedding): Embedding(20034, 64, padding_idx=0)
  (position_embedding): Embedding(10, 64)
  (trm_encoder): TransformerEncoder(
    (layer): ModuleList(
      (0): TransformerLayer(
        (multi_head_attention): MultiHeadAttention(
          (query): Linear(in_features=64, out_features=64, bias=True)
          (key): Linear(in_features=64, out_features=64, bias=True)
          (value): Linear(in_features=64, out_features=64, bias=True)
          (attn_dropout): Dropout(p=0.35, inplace=False)
          (dense): Linear(in_features=64, out_features=64, bias=True)
          (LayerNorm): LayerNorm((64,), eps=1e-12, elementwise_affine=True)
          (out_dropout): Dropout(p=0.35, inplace=False)
        )
        (feed_forward): FeedForward(
          (dense_1): Linear(in_features=64, out_features=128, bias=True)
          (dense_2): Linear(in_features=128, out_features=64, bias=True)
          (LayerNorm): LayerNorm((64,), eps=1e-12, elementwise_affine=True)
          (dropout): Dropout(p=0.35, inplace=False)
        )
      )
      (1): TransformerLayer(
        (multi_head_attention): MultiHeadAttention(
          (query): Linear(in_features=64, out_features=64, bias=True)
          (key): Linear(in_features=64, out_features=64, bias=True)
          (value): Linear(in_features=64, out_features=64, bias=True)
          (attn_dropout): Dropout(p=0.35, inplace=False)
          (dense): Linear(in_features=64, out_features=64, bias=True)
          (LayerNorm): LayerNorm((64,), eps=1e-12, elementwise_affine=True)
          (out_dropout): Dropout(p=0.35, inplace=False)
        )
        (feed_forward): FeedForward(
          (dense_1): Linear(in_features=64, out_features=128, bias=True)
          (dense_2): Linear(in_features=128, out_features=64, bias=True)
          (LayerNorm): LayerNorm((64,), eps=1e-12, elementwise_affine=True)
          (dropout): Dropout(p=0.35, inplace=False)
        )
      )
    )
  )
  (LayerNorm): LayerNorm((64,), eps=1e-12, elementwise_affine=True)
  (dropout): Dropout(p=0.35, inplace=False)
  (loss_fct): CrossEntropyLoss()
)
WARNING [03-08 08:10:26] get_path in utils:
Path is None
WARNING [03-08 08:10:26] load_state_from_given_path in utils:
Not given any path.
INFO    [03-08 08:10:26] assert_model_device in utils:
model sasrec has 5.1494140625 MB params.
INFO    [03-08 08:10:26] __init__ in BasicTrainer:
…
