…
dir ___ablation_movies_dvae_term/teacher_2020_narm-T-3-al-0.5-dal-0.25-sr-0.8_05-23_23:32_0/auxiliary_narm_logs/tb_vis does not exist! Create one.
WARNING [05-23 23:32:38] get_exist_path in utils:
dir ___ablation_movies_dvae_term/teacher_2020_narm-T-3-al-0.5-dal-0.25-sr-0.8_05-23_23:32_0/auxiliary_narm_logs/checkpoint does not exist! Create one.
INFO    [05-23 23:32:38] load_state_from_given_path in utils:
checkpoint epoch: 59
INFO    [05-23 23:32:38] load_state_from_given_path in utils:
Loading model's parameters
INFO    [05-23 23:32:38] load_state_from_given_path in utils:
Loading optimizer's parameters
DEBUG   [05-23 23:32:38] _generate_auxliary_trainer in DVAEDistillSched:
auxiliary model: 
NARM(
  (item_embedding): Embedding(21036, 64, padding_idx=0)
  (emb_dropout): Dropout(p=0.25, inplace=False)
  (gru): GRU(64, 128, bias=False, batch_first=True)
  (a_1): Linear(in_features=128, out_features=128, bias=False)
  (a_2): Linear(in_features=128, out_features=128, bias=False)
  (v_t): Linear(in_features=128, out_features=1, bias=False)
  (ct_dropout): Dropout(p=0.5, inplace=False)
  (b): Linear(in_features=256, out_features=64, bias=False)
  (loss_fct): CrossEntropyLoss()
)
INFO    [05-23 23:32:38] assert_model_device in utils:
model auxiliary_narm has 5.60498046875 MB params.
INFO    [05-23 23:32:38] __init__ in BasicTrainer:
450560 iter per epoch
DEBUG   [05-23 23:32:38] generate_model in utils:
model_code_list=['prior']
INFO    [05-23 23:32:38] load_model_config in utils:
loading model prior's config file at asset/config/model/prior.json
…
dir ___ablation_movies_dvae_term/teacher_2020_narm-T-3-al-0.5-dal-0.25-sr-0.8_05-23_23:32_0/teacher_narm_logs/tb_vis does not exist! Create one.
WARNING [05-23 23:32:48] get_exist_path in utils:
dir ___ablation_movies_dvae_term/teacher_2020_narm-T-3-al-0.5-dal-0.25-sr-0.8_05-23_23:32_0/teacher_narm_logs/checkpoint does not exist! Create one.
WARNING [05-23 23:32:48] get_path in utils:
Path is None
WARNING [05-23 23:32:48] load_state_from_given_path in utils:
Not given any path.
DEBUG   [05-23 23:32:48] _generate_teacher_trainer in DVAEDistillSched:
prior model: 
PriorModel(
  (observed_embedding): Embedding(21036, 64, padding_idx=0)
  (prior_item_embedding): Embedding(21036, 64, padding_idx=0)
)
DEBUG   [05-23 23:32:48] _generate_teacher_trainer in DVAEDistillSched:
teacher model: 
NARM(
  (item_embedding): Embedding(21036, 64, padding_idx=0)
  (emb_dropout): Dropout(p=0.25, inplace=False)
  (gru): GRU(64, 128, bias=False, batch_first=True)
  (a_1): Linear(in_features=128, out_features=128, bias=False)
  (a_2): Linear(in_features=128, out_features=128, bias=False)
  (v_t): Linear(in_features=128, out_features=1, bias=False)
  (ct_dropout): Dropout(p=0.5, inplace=False)
  (b): Linear(in_features=256, out_features=64, bias=False)
  (loss_fct): CrossEntropyLoss()
)
INFO    [05-23 23:32:48] assert_model_device in utils:
model teacher_narm has 5.60498046875 MB params.
INFO    [05-23 23:32:48] assert_model_device in utils:
model auxiliary_narm has 5.60498046875 MB params.
INFO    [05-23 23:32:48] assert_model_device in utils:
model prior has 10.271484375 MB params.
INFO    [05-23 23:32:48] __init__ in DVAETrainer:
…
