…
WARNING [03-26 07:48:59] get_exist_path in utils:
dir ___movies_ensemble_distill_partial_trained_2022/ep_nextitnet-en-0.5-T-6.0-al-0.75-sr-0.8_03-26_07:48_t9/teacher1_nextitnet_logs/checkpoint does not exist! Create one.
INFO    [03-26 07:48:59] load_state_from_given_path in utils:
checkpoint epoch: 23
INFO    [03-26 07:48:59] load_state_from_given_path in utils:
Loading model's parameters
INFO    [03-26 07:48:59] load_state_from_given_path in utils:
Loading optimizer's parameters
DEBUG   [03-26 07:48:59] _generate_teacher_trainer in EnsembleDistillSched:
teacher1_nextitnet: 
NextItNet(
  (item_embedding): Embedding(21036, 64, padding_idx=0)
  (residual_blocks): Sequential(
    (0): ResidualBlock_b(
      (conv1): Conv2d(64, 64, kernel_size=(1, 3), stride=(1, 1))
      (ln1): LayerNorm((64,), eps=1e-08, elementwise_affine=True)
      (conv2): Conv2d(64, 64, kernel_size=(1, 3), stride=(1, 1), dilation=(2, 2))
      (ln2): LayerNorm((64,), eps=1e-08, elementwise_affine=True)
    )
    (1): ResidualBlock_b(
      (conv1): Conv2d(64, 64, kernel_size=(1, 3), stride=(1, 1))
      (ln1): LayerNorm((64,), eps=1e-08, elementwise_affine=True)
      (conv2): Conv2d(64, 64, kernel_size=(1, 3), stride=(1, 1), dilation=(2, 2))
      (ln2): LayerNorm((64,), eps=1e-08, elementwise_affine=True)
    )
    (2): ResidualBlock_b(
      (conv1): Conv2d(64, 64, kernel_size=(1, 3), stride=(1, 1))
      (ln1): LayerNorm((64,), eps=1e-08, elementwise_affine=True)
      (conv2): Conv2d(64, 64, kernel_size=(1, 3), stride=(1, 1), dilation=(2, 2))
      (ln2): LayerNorm((64,), eps=1e-08, elementwise_affine=True)
    )
    (3): ResidualBlock_b(
      (conv1): Conv2d(64, 64, kernel_size=(1, 3), stride=(1, 1))
      (ln1): LayerNorm((64,), eps=1e-08, elementwise_affine=True)
      (conv2): Conv2d(64, 64, kernel_size=(1, 3), stride=(1, 1), dilation=(2, 2))
      (ln2): LayerNorm((64,), eps=1e-08, elementwise_affine=True)
    )
    (4): ResidualBlock_b(
      (conv1): Conv2d(64, 64, kernel_size=(1, 3), stride=(1, 1))
      (ln1): LayerNorm((64,), eps=1e-08, elementwise_affine=True)
      (conv2): Conv2d(64, 64, kernel_size=(1, 3), stride=(1, 1), dilation=(2, 2))
      (ln2): LayerNorm((64,), eps=1e-08, elementwise_affine=True)
    )
  )
  (final_layer): Linear(in_features=64, out_features=64, bias=True)
  (loss_fct): CrossEntropyLoss()
  (reg_loss): RegLoss()
)
INFO    [03-26 07:48:59] assert_model_device in utils:
model teacher1_nextitnet has 5.627685546875 MB params.
INFO    [03-26 07:48:59] __init__ in BasicTrainer:
451328 iter per epoch
DEBUG   [03-26 07:48:59] generate_model in utils:
model_code_list=['nextitnet']
INFO    [03-26 07:48:59] load_model_config in utils:
…
