…
dir ___ablation_nit_movies_dvae/teacher_2022_nextitnet-T-3-al-0.75-dal-0.75-sr-0.8_05-24_00:02_0/auxiliary_nextitnet_logs/tb_vis does not exist! Create one.
WARNING [05-24 00:02:48] get_exist_path in utils:
dir ___ablation_nit_movies_dvae/teacher_2022_nextitnet-T-3-al-0.75-dal-0.75-sr-0.8_05-24_00:02_0/auxiliary_nextitnet_logs/checkpoint does not exist! Create one.
INFO    [05-24 00:02:48] load_state_from_given_path in utils:
checkpoint epoch: 23
INFO    [05-24 00:02:48] load_state_from_given_path in utils:
Loading model's parameters
INFO    [05-24 00:02:48] load_state_from_given_path in utils:
Loading optimizer's parameters
DEBUG   [05-24 00:02:48] _generate_auxliary_trainer in DVAEDistillSched:
auxiliary model: 
NextItNet(
  (item_embedding): Embedding(21036, 64, padding_idx=0)
  (residual_blocks): Sequential(
    (0): ResidualBlock_b(
      (conv1): Conv2d(64, 64, kernel_size=(1, 3), stride=(1, 1))
      (ln1): LayerNorm((64,), eps=1e-08, elementwise_affine=True)
      (conv2): Conv2d(64, 64, kernel_size=(1, 3), stride=(1, 1), dilation=(2, 2))
      (ln2): LayerNorm((64,), eps=1e-08, elementwise_affine=True)
    )
    (1): ResidualBlock_b(
      (conv1): Conv2d(64, 64, kernel_size=(1, 3), stride=(1, 1))
      (ln1): LayerNorm((64,), eps=1e-08, elementwise_affine=True)
      (conv2): Conv2d(64, 64, kernel_size=(1, 3), stride=(1, 1), dilation=(2, 2))
      (ln2): LayerNorm((64,), eps=1e-08, elementwise_affine=True)
    )
    (2): ResidualBlock_b(
      (conv1): Conv2d(64, 64, kernel_size=(1, 3), stride=(1, 1))
      (ln1): LayerNorm((64,), eps=1e-08, elementwise_affine=True)
      (conv2): Conv2d(64, 64, kernel_size=(1, 3), stride=(1, 1), dilation=(2, 2))
      (ln2): LayerNorm((64,), eps=1e-08, elementwise_affine=True)
    )
    (3): ResidualBlock_b(
      (conv1): Conv2d(64, 64, kernel_size=(1, 3), stride=(1, 1))
      (ln1): LayerNorm((64,), eps=1e-08, elementwise_affine=True)
      (conv2): Conv2d(64, 64, kernel_size=(1, 3), stride=(1, 1), dilation=(2, 2))
      (ln2): LayerNorm((64,), eps=1e-08, elementwise_affine=True)
    )
    (4): ResidualBlock_b(
      (conv1): Conv2d(64, 64, kernel_size=(1, 3), stride=(1, 1))
      (ln1): LayerNorm((64,), eps=1e-08, elementwise_affine=True)
      (conv2): Conv2d(64, 64, kernel_size=(1, 3), stride=(1, 1), dilation=(2, 2))
      (ln2): LayerNorm((64,), eps=1e-08, elementwise_affine=True)
    )
  )
  (final_layer): Linear(in_features=64, out_features=64, bias=True)
  (loss_fct): CrossEntropyLoss()
  (reg_loss): RegLoss()
)
INFO    [05-24 00:02:48] assert_model_device in utils:
model auxiliary_nextitnet has 5.627685546875 MB params.
INFO    [05-24 00:02:48] __init__ in BasicTrainer:
451328 iter per epoch
DEBUG   [05-24 00:02:48] generate_model in utils:
model_code_list=['prior']
INFO    [05-24 00:02:48] load_model_config in utils:
…
dir ___ablation_nit_movies_dvae/teacher_2022_nextitnet-T-3-al-0.75-dal-0.75-sr-0.8_05-24_00:02_0/teacher_nextitnet_logs/tb_vis does not exist! Create one.
WARNING [05-24 00:02:59] get_exist_path in utils:
dir ___ablation_nit_movies_dvae/teacher_2022_nextitnet-T-3-al-0.75-dal-0.75-sr-0.8_05-24_00:02_0/teacher_nextitnet_logs/checkpoint does not exist! Create one.
WARNING [05-24 00:02:59] get_path in utils:
Path is None
WARNING [05-24 00:02:59] load_state_from_given_path in utils:
Not given any path.
DEBUG   [05-24 00:02:59] _generate_teacher_trainer in DVAEDistillSched:
prior model: 
PriorModel(
  (observed_embedding): Embedding(21036, 64, padding_idx=0)
  (prior_item_embedding): Embedding(21036, 64, padding_idx=0)
)
DEBUG   [05-24 00:02:59] _generate_teacher_trainer in DVAEDistillSched:
teacher model: 
NextItNet(
  (item_embedding): Embedding(21036, 64, padding_idx=0)
  (residual_blocks): Sequential(
    (0): ResidualBlock_b(
      (conv1): Conv2d(64, 64, kernel_size=(1, 3), stride=(1, 1))
      (ln1): LayerNorm((64,), eps=1e-08, elementwise_affine=True)
      (conv2): Conv2d(64, 64, kernel_size=(1, 3), stride=(1, 1), dilation=(2, 2))
      (ln2): LayerNorm((64,), eps=1e-08, elementwise_affine=True)
    )
    (1): ResidualBlock_b(
      (conv1): Conv2d(64, 64, kernel_size=(1, 3), stride=(1, 1))
      (ln1): LayerNorm((64,), eps=1e-08, elementwise_affine=True)
      (conv2): Conv2d(64, 64, kernel_size=(1, 3), stride=(1, 1), dilation=(2, 2))
      (ln2): LayerNorm((64,), eps=1e-08, elementwise_affine=True)
    )
    (2): ResidualBlock_b(
      (conv1): Conv2d(64, 64, kernel_size=(1, 3), stride=(1, 1))
      (ln1): LayerNorm((64,), eps=1e-08, elementwise_affine=True)
      (conv2): Conv2d(64, 64, kernel_size=(1, 3), stride=(1, 1), dilation=(2, 2))
      (ln2): LayerNorm((64,), eps=1e-08, elementwise_affine=True)
    )
    (3): ResidualBlock_b(
      (conv1): Conv2d(64, 64, kernel_size=(1, 3), stride=(1, 1))
      (ln1): LayerNorm((64,), eps=1e-08, elementwise_affine=True)
      (conv2): Conv2d(64, 64, kernel_size=(1, 3), stride=(1, 1), dilation=(2, 2))
      (ln2): LayerNorm((64,), eps=1e-08, elementwise_affine=True)
    )
    (4): ResidualBlock_b(
      (conv1): Conv2d(64, 64, kernel_size=(1, 3), stride=(1, 1))
      (ln1): LayerNorm((64,), eps=1e-08, elementwise_affine=True)
      (conv2): Conv2d(64, 64, kernel_size=(1, 3), stride=(1, 1), dilation=(2, 2))
      (ln2): LayerNorm((64,), eps=1e-08, elementwise_affine=True)
    )
  )
  (final_layer): Linear(in_features=64, out_features=64, bias=True)
  (loss_fct): CrossEntropyLoss()
  (reg_loss): RegLoss()
)
INFO    [05-24 00:02:59] assert_model_device in utils:
model teacher_nextitnet has 5.627685546875 MB params.
INFO    [05-24 00:02:59] assert_model_device in utils:
model auxiliary_nextitnet has 5.627685546875 MB params.
INFO    [05-24 00:02:59] assert_model_device in utils:
model prior has 10.271484375 MB params.
…
