…
dir ___lfms_soft_2022/pop_nextitnet-T-9.0-al-0.75_02-25_13:28_t12/student_nextitnet_logs does not exist! Create one.
WARNING [02-25 13:28:14] get_exist_path in utils:
dir ___lfms_soft_2022/pop_nextitnet-T-9.0-al-0.75_02-25_13:28_t12/student_nextitnet_logs/tb_vis does not exist! Create one.
WARNING [02-25 13:28:14] get_exist_path in utils:
dir ___lfms_soft_2022/pop_nextitnet-T-9.0-al-0.75_02-25_13:28_t12/student_nextitnet_logs/checkpoint does not exist! Create one.
WARNING [02-25 13:28:14] get_path in utils:
Path is None
WARNING [02-25 13:28:14] load_state_from_given_path in utils:
Not given any path.
DEBUG   [02-25 13:28:14] __init__ in DistillSched:
student model: 
NextItNet(
  (item_embedding): Embedding(3647, 64, padding_idx=0)
  (residual_blocks): Sequential(
    (0): ResidualBlock_b(
      (conv1): Conv2d(64, 64, kernel_size=(1, 3), stride=(1, 1))
      (ln1): LayerNorm((64,), eps=1e-08, elementwise_affine=True)
      (conv2): Conv2d(64, 64, kernel_size=(1, 3), stride=(1, 1), dilation=(2, 2))
      (ln2): LayerNorm((64,), eps=1e-08, elementwise_affine=True)
    )
    (1): ResidualBlock_b(
      (conv1): Conv2d(64, 64, kernel_size=(1, 3), stride=(1, 1))
      (ln1): LayerNorm((64,), eps=1e-08, elementwise_affine=True)
      (conv2): Conv2d(64, 64, kernel_size=(1, 3), stride=(1, 1), dilation=(2, 2))
      (ln2): LayerNorm((64,), eps=1e-08, elementwise_affine=True)
    )
    (2): ResidualBlock_b(
      (conv1): Conv2d(64, 64, kernel_size=(1, 3), stride=(1, 1))
      (ln1): LayerNorm((64,), eps=1e-08, elementwise_affine=True)
      (conv2): Conv2d(64, 64, kernel_size=(1, 3), stride=(1, 1), dilation=(2, 2))
      (ln2): LayerNorm((64,), eps=1e-08, elementwise_affine=True)
    )
    (3): ResidualBlock_b(
      (conv1): Conv2d(64, 64, kernel_size=(1, 3), stride=(1, 1))
      (ln1): LayerNorm((64,), eps=1e-08, elementwise_affine=True)
      (conv2): Conv2d(64, 64, kernel_size=(1, 3), stride=(1, 1), dilation=(2, 2))
      (ln2): LayerNorm((64,), eps=1e-08, elementwise_affine=True)
    )
    (4): ResidualBlock_b(
      (conv1): Conv2d(64, 64, kernel_size=(1, 3), stride=(1, 1))
      (ln1): LayerNorm((64,), eps=1e-08, elementwise_affine=True)
      (conv2): Conv2d(64, 64, kernel_size=(1, 3), stride=(1, 1), dilation=(2, 2))
      (ln2): LayerNorm((64,), eps=1e-08, elementwise_affine=True)
    )
  )
  (final_layer): Linear(in_features=64, out_features=64, bias=True)
  (loss_fct): CrossEntropyLoss()
  (reg_loss): RegLoss()
)
INFO    [02-25 13:28:14] assert_model_device in utils:
model student_nextitnet has 1.38232421875 MB params.
INFO    [02-25 13:28:14] assert_model_device in utils:
model teacher_pop has 3.814697265625e-06 MB params.
INFO    [02-25 13:28:14] __init__ in DistillTrainer:
48256 iter per epoch
INFO    [02-25 13:28:14] _set_current_routine in Routine:
…
