…
dir ___lfms_dvae_2022/partial_sasrec-T-3.0-al-0.5-dal-0.5-sr-0.8_02-28_22:38_t17/auxiliary_sasrec_logs/tb_vis does not exist! Create one.
WARNING [02-28 22:38:57] get_exist_path in utils:
dir ___lfms_dvae_2022/partial_sasrec-T-3.0-al-0.5-dal-0.5-sr-0.8_02-28_22:38_t17/auxiliary_sasrec_logs/checkpoint does not exist! Create one.
INFO    [02-28 22:38:57] load_state_from_given_path in utils:
checkpoint epoch: 42
INFO    [02-28 22:38:57] load_state_from_given_path in utils:
Loading model's parameters
INFO    [02-28 22:38:57] load_state_from_given_path in utils:
Loading optimizer's parameters
DEBUG   [02-28 22:38:57] _generate_auxliary_trainer in DVAEDistillSched:
auxiliary model: 
SASRecModel(
  (item_embedding): Embedding(3647, 64, padding_idx=0)
  (position_embedding): Embedding(20, 64)
  (trm_encoder): TransformerEncoder(
    (layer): ModuleList(
      (0): TransformerLayer(
        (multi_head_attention): MultiHeadAttention(
          (query): Linear(in_features=64, out_features=64, bias=True)
          (key): Linear(in_features=64, out_features=64, bias=True)
          (value): Linear(in_features=64, out_features=64, bias=True)
          (attn_dropout): Dropout(p=0.35, inplace=False)
          (dense): Linear(in_features=64, out_features=64, bias=True)
          (LayerNorm): LayerNorm((64,), eps=1e-12, elementwise_affine=True)
          (out_dropout): Dropout(p=0.35, inplace=False)
        )
        (feed_forward): FeedForward(
          (dense_1): Linear(in_features=64, out_features=128, bias=True)
          (dense_2): Linear(in_features=128, out_features=64, bias=True)
          (LayerNorm): LayerNorm((64,), eps=1e-12, elementwise_affine=True)
          (dropout): Dropout(p=0.35, inplace=False)
        )
      )
      (1): TransformerLayer(
        (multi_head_attention): MultiHeadAttention(
          (query): Linear(in_features=64, out_features=64, bias=True)
          (key): Linear(in_features=64, out_features=64, bias=True)
          (value): Linear(in_features=64, out_features=64, bias=True)
          (attn_dropout): Dropout(p=0.35, inplace=False)
          (dense): Linear(in_features=64, out_features=64, bias=True)
          (LayerNorm): LayerNorm((64,), eps=1e-12, elementwise_affine=True)
          (out_dropout): Dropout(p=0.35, inplace=False)
        )
        (feed_forward): FeedForward(
          (dense_1): Linear(in_features=64, out_features=128, bias=True)
          (dense_2): Linear(in_features=128, out_features=64, bias=True)
          (LayerNorm): LayerNorm((64,), eps=1e-12, elementwise_affine=True)
          (dropout): Dropout(p=0.35, inplace=False)
        )
      )
    )
  )
  (LayerNorm): LayerNorm((64,), eps=1e-12, elementwise_affine=True)
  (dropout): Dropout(p=0.35, inplace=False)
  (loss_fct): CrossEntropyLoss()
)
INFO    [02-28 22:38:57] assert_model_device in utils:
model auxiliary_sasrec has 1.151123046875 MB params.
INFO    [02-28 22:38:57] __init__ in BasicTrainer:
48256 iter per epoch
DEBUG   [02-28 22:38:57] generate_model in utils:
model_code_list=['prior']
INFO    [02-28 22:38:57] load_model_config in utils:
…
WARNING [02-28 22:38:59] get_exist_path in utils:
dir ___lfms_dvae_2022/partial_sasrec-T-3.0-al-0.5-dal-0.5-sr-0.8_02-28_22:38_t17/teacher_sasrec_logs/tb_vis does not exist! Create one.
WARNING [02-28 22:38:59] get_exist_path in utils:
dir ___lfms_dvae_2022/partial_sasrec-T-3.0-al-0.5-dal-0.5-sr-0.8_02-28_22:38_t17/teacher_sasrec_logs/checkpoint does not exist! Create one.
WARNING [02-28 22:38:59] get_path in utils:
Path is None
WARNING [02-28 22:38:59] load_state_from_given_path in utils:
Not given any path.
DEBUG   [02-28 22:38:59] _generate_teacher_trainer in DVAEDistillSched:
prior model: 
PriorModel(
  (observed_embedding): Embedding(3647, 64, padding_idx=0)
  (prior_item_embedding): Embedding(3647, 64, padding_idx=0)
)
DEBUG   [02-28 22:38:59] _generate_teacher_trainer in DVAEDistillSched:
teacher model: 
SASRecModel(
  (item_embedding): Embedding(3647, 64, padding_idx=0)
  (position_embedding): Embedding(20, 64)
  (trm_encoder): TransformerEncoder(
    (layer): ModuleList(
      (0): TransformerLayer(
        (multi_head_attention): MultiHeadAttention(
          (query): Linear(in_features=64, out_features=64, bias=True)
          (key): Linear(in_features=64, out_features=64, bias=True)
          (value): Linear(in_features=64, out_features=64, bias=True)
          (attn_dropout): Dropout(p=0.35, inplace=False)
          (dense): Linear(in_features=64, out_features=64, bias=True)
          (LayerNorm): LayerNorm((64,), eps=1e-12, elementwise_affine=True)
          (out_dropout): Dropout(p=0.35, inplace=False)
        )
        (feed_forward): FeedForward(
          (dense_1): Linear(in_features=64, out_features=128, bias=True)
          (dense_2): Linear(in_features=128, out_features=64, bias=True)
          (LayerNorm): LayerNorm((64,), eps=1e-12, elementwise_affine=True)
          (dropout): Dropout(p=0.35, inplace=False)
        )
      )
      (1): TransformerLayer(
        (multi_head_attention): MultiHeadAttention(
          (query): Linear(in_features=64, out_features=64, bias=True)
          (key): Linear(in_features=64, out_features=64, bias=True)
          (value): Linear(in_features=64, out_features=64, bias=True)
          (attn_dropout): Dropout(p=0.35, inplace=False)
          (dense): Linear(in_features=64, out_features=64, bias=True)
          (LayerNorm): LayerNorm((64,), eps=1e-12, elementwise_affine=True)
          (out_dropout): Dropout(p=0.35, inplace=False)
        )
        (feed_forward): FeedForward(
          (dense_1): Linear(in_features=64, out_features=128, bias=True)
          (dense_2): Linear(in_features=128, out_features=64, bias=True)
          (LayerNorm): LayerNorm((64,), eps=1e-12, elementwise_affine=True)
          (dropout): Dropout(p=0.35, inplace=False)
        )
      )
    )
  )
  (LayerNorm): LayerNorm((64,), eps=1e-12, elementwise_affine=True)
  (dropout): Dropout(p=0.35, inplace=False)
  (loss_fct): CrossEntropyLoss()
)
INFO    [02-28 22:38:59] assert_model_device in utils:
model teacher_sasrec has 1.151123046875 MB params.
INFO    [02-28 22:38:59] assert_model_device in utils:
model auxiliary_sasrec has 1.151123046875 MB params.
INFO    [02-28 22:38:59] assert_model_device in utils:
model prior has 1.78076171875 MB params.
…
