…
dir ___yelp_ed_2020/ed_nextitnet-en-0.5-T-1-al-0.75_03-31_16:14_0/teacher1_nextitnet_logs/tb_vis does not exist! Create one.
WARNING [03-31 16:14:25] get_exist_path in utils:
dir ___yelp_ed_2020/ed_nextitnet-en-0.5-T-1-al-0.75_03-31_16:14_0/teacher1_nextitnet_logs/checkpoint does not exist! Create one.
INFO    [03-31 16:14:25] load_state_from_given_path in utils:
checkpoint epoch: 32
INFO    [03-31 16:14:25] load_state_from_given_path in utils:
Loading model's parameters
INFO    [03-31 16:14:25] load_state_from_given_path in utils:
Loading optimizer's parameters
DEBUG   [03-31 16:14:26] _generate_teacher_trainer in EnsembleDistillSched:
teacher1_nextitnet: 
NextItNet(
  (item_embedding): Embedding(20034, 64, padding_idx=0)
  (residual_blocks): Sequential(
    (0): ResidualBlock_b(
      (conv1): Conv2d(64, 64, kernel_size=(1, 3), stride=(1, 1))
      (ln1): LayerNorm((64,), eps=1e-08, elementwise_affine=True)
      (conv2): Conv2d(64, 64, kernel_size=(1, 3), stride=(1, 1), dilation=(2, 2))
      (ln2): LayerNorm((64,), eps=1e-08, elementwise_affine=True)
    )
    (1): ResidualBlock_b(
      (conv1): Conv2d(64, 64, kernel_size=(1, 3), stride=(1, 1))
      (ln1): LayerNorm((64,), eps=1e-08, elementwise_affine=True)
      (conv2): Conv2d(64, 64, kernel_size=(1, 3), stride=(1, 1), dilation=(2, 2))
      (ln2): LayerNorm((64,), eps=1e-08, elementwise_affine=True)
    )
    (2): ResidualBlock_b(
      (conv1): Conv2d(64, 64, kernel_size=(1, 3), stride=(1, 1))
      (ln1): LayerNorm((64,), eps=1e-08, elementwise_affine=True)
      (conv2): Conv2d(64, 64, kernel_size=(1, 3), stride=(1, 1), dilation=(2, 2))
      (ln2): LayerNorm((64,), eps=1e-08, elementwise_affine=True)
    )
    (3): ResidualBlock_b(
      (conv1): Conv2d(64, 64, kernel_size=(1, 3), stride=(1, 1))
      (ln1): LayerNorm((64,), eps=1e-08, elementwise_affine=True)
      (conv2): Conv2d(64, 64, kernel_size=(1, 3), stride=(1, 1), dilation=(2, 2))
      (ln2): LayerNorm((64,), eps=1e-08, elementwise_affine=True)
    )
    (4): ResidualBlock_b(
      (conv1): Conv2d(64, 64, kernel_size=(1, 3), stride=(1, 1))
      (ln1): LayerNorm((64,), eps=1e-08, elementwise_affine=True)
      (conv2): Conv2d(64, 64, kernel_size=(1, 3), stride=(1, 1), dilation=(2, 2))
      (ln2): LayerNorm((64,), eps=1e-08, elementwise_affine=True)
    )
  )
  (final_layer): Linear(in_features=64, out_features=64, bias=True)
  (loss_fct): CrossEntropyLoss()
  (reg_loss): RegLoss()
)
INFO    [03-31 16:14:26] assert_model_device in utils:
model teacher1_nextitnet has 5.383056640625 MB params.
INFO    [03-31 16:14:26] __init__ in BasicTrainer:
229440 iter per epoch
DEBUG   [03-31 16:14:26] generate_model in utils:
model_code_list=['nextitnet']
INFO    [03-31 16:14:26] load_model_config in utils:
…
