…
dir ___yelp_dvae_2022/teacher_narm-T-3.0-al-0.75-dal-0.5-sr-0.8_05-05_23:37_t12/auxiliary_narm_logs/tb_vis does not exist! Create one.
WARNING [05-05 23:38:05] get_exist_path in utils:
dir ___yelp_dvae_2022/teacher_narm-T-3.0-al-0.75-dal-0.5-sr-0.8_05-05_23:37_t12/auxiliary_narm_logs/checkpoint does not exist! Create one.
INFO    [05-05 23:38:05] load_state_from_given_path in utils:
checkpoint epoch: 78
INFO    [05-05 23:38:05] load_state_from_given_path in utils:
Loading model's parameters
INFO    [05-05 23:38:05] load_state_from_given_path in utils:
Loading optimizer's parameters
DEBUG   [05-05 23:38:05] _generate_auxliary_trainer in DVAEDistillSched:
auxiliary model: 
NARM(
  (item_embedding): Embedding(20034, 64, padding_idx=0)
  (emb_dropout): Dropout(p=0.25, inplace=False)
  (gru): GRU(64, 128, bias=False, batch_first=True)
  (a_1): Linear(in_features=128, out_features=128, bias=False)
  (a_2): Linear(in_features=128, out_features=128, bias=False)
  (v_t): Linear(in_features=128, out_features=1, bias=False)
  (ct_dropout): Dropout(p=0.5, inplace=False)
  (b): Linear(in_features=256, out_features=64, bias=False)
  (loss_fct): CrossEntropyLoss()
)
INFO    [05-05 23:38:05] assert_model_device in utils:
model auxiliary_narm has 5.3603515625 MB params.
INFO    [05-05 23:38:05] __init__ in BasicTrainer:
229376 iter per epoch
DEBUG   [05-05 23:38:05] generate_model in utils:
model_code_list=['prior']
INFO    [05-05 23:38:05] load_model_config in utils:
loading model prior's config file at asset/config/model/prior.json
…
WARNING [05-05 23:38:09] get_exist_path in utils:
dir ___yelp_dvae_2022/teacher_narm-T-3.0-al-0.75-dal-0.5-sr-0.8_05-05_23:37_t12/teacher_narm_logs/tb_vis does not exist! Create one.
WARNING [05-05 23:38:09] get_exist_path in utils:
dir ___yelp_dvae_2022/teacher_narm-T-3.0-al-0.75-dal-0.5-sr-0.8_05-05_23:37_t12/teacher_narm_logs/checkpoint does not exist! Create one.
WARNING [05-05 23:38:09] get_path in utils:
Path is None
WARNING [05-05 23:38:09] load_state_from_given_path in utils:
Not given any path.
DEBUG   [05-05 23:38:09] _generate_teacher_trainer in DVAEDistillSched:
prior model: 
PriorModel(
  (observed_embedding): Embedding(20034, 64, padding_idx=0)
  (prior_item_embedding): Embedding(20034, 64, padding_idx=0)
)
DEBUG   [05-05 23:38:09] _generate_teacher_trainer in DVAEDistillSched:
teacher model: 
NARM(
  (item_embedding): Embedding(20034, 64, padding_idx=0)
  (emb_dropout): Dropout(p=0.25, inplace=False)
  (gru): GRU(64, 128, bias=False, batch_first=True)
  (a_1): Linear(in_features=128, out_features=128, bias=False)
  (a_2): Linear(in_features=128, out_features=128, bias=False)
  (v_t): Linear(in_features=128, out_features=1, bias=False)
  (ct_dropout): Dropout(p=0.5, inplace=False)
  (b): Linear(in_features=256, out_features=64, bias=False)
  (loss_fct): CrossEntropyLoss()
)
INFO    [05-05 23:38:09] assert_model_device in utils:
model teacher_narm has 5.3603515625 MB params.
INFO    [05-05 23:38:09] assert_model_device in utils:
model auxiliary_narm has 5.3603515625 MB params.
INFO    [05-05 23:38:09] assert_model_device in utils:
model prior has 9.7822265625 MB params.
INFO    [05-05 23:38:09] __init__ in DVAETrainer:
…
