…
WARNING [02-25 19:51:02] get_exist_path in utils:
dir ___lfms_ensemble_distill_diff_model_2020/next_nextitnet-en-0.5-T-3.0-al-0.75_02-25_19:50_t24/teacher1_nextitnet_logs/checkpoint does not exist! Create one.
INFO    [02-25 19:51:02] load_state_from_given_path in utils:
checkpoint epoch: 42
INFO    [02-25 19:51:02] load_state_from_given_path in utils:
Loading model's parameters
INFO    [02-25 19:51:02] load_state_from_given_path in utils:
Loading optimizer's parameters
DEBUG   [02-25 19:51:02] _generate_teacher_trainer in EnsembleDistillSched:
teacher1_nextitnet: 
NextItNet(
  (item_embedding): Embedding(3647, 64, padding_idx=0)
  (residual_blocks): Sequential(
    (0): ResidualBlock_b(
      (conv1): Conv2d(64, 64, kernel_size=(1, 3), stride=(1, 1))
      (ln1): LayerNorm((64,), eps=1e-08, elementwise_affine=True)
      (conv2): Conv2d(64, 64, kernel_size=(1, 3), stride=(1, 1), dilation=(2, 2))
      (ln2): LayerNorm((64,), eps=1e-08, elementwise_affine=True)
    )
    (1): ResidualBlock_b(
      (conv1): Conv2d(64, 64, kernel_size=(1, 3), stride=(1, 1))
      (ln1): LayerNorm((64,), eps=1e-08, elementwise_affine=True)
      (conv2): Conv2d(64, 64, kernel_size=(1, 3), stride=(1, 1), dilation=(2, 2))
      (ln2): LayerNorm((64,), eps=1e-08, elementwise_affine=True)
    )
    (2): ResidualBlock_b(
      (conv1): Conv2d(64, 64, kernel_size=(1, 3), stride=(1, 1))
      (ln1): LayerNorm((64,), eps=1e-08, elementwise_affine=True)
      (conv2): Conv2d(64, 64, kernel_size=(1, 3), stride=(1, 1), dilation=(2, 2))
      (ln2): LayerNorm((64,), eps=1e-08, elementwise_affine=True)
    )
    (3): ResidualBlock_b(
      (conv1): Conv2d(64, 64, kernel_size=(1, 3), stride=(1, 1))
      (ln1): LayerNorm((64,), eps=1e-08, elementwise_affine=True)
      (conv2): Conv2d(64, 64, kernel_size=(1, 3), stride=(1, 1), dilation=(2, 2))
      (ln2): LayerNorm((64,), eps=1e-08, elementwise_affine=True)
    )
    (4): ResidualBlock_b(
      (conv1): Conv2d(64, 64, kernel_size=(1, 3), stride=(1, 1))
      (ln1): LayerNorm((64,), eps=1e-08, elementwise_affine=True)
      (conv2): Conv2d(64, 64, kernel_size=(1, 3), stride=(1, 1), dilation=(2, 2))
      (ln2): LayerNorm((64,), eps=1e-08, elementwise_affine=True)
    )
  )
  (final_layer): Linear(in_features=64, out_features=64, bias=True)
  (loss_fct): CrossEntropyLoss()
  (reg_loss): RegLoss()
)
INFO    [02-25 19:51:02] assert_model_device in utils:
model teacher1_nextitnet has 1.38232421875 MB params.
INFO    [02-25 19:51:02] __init__ in BasicTrainer:
48256 iter per epoch
DEBUG   [02-25 19:51:02] generate_model in utils:
model_code_list=['nextitnet']
INFO    [02-25 19:51:02] load_model_config in utils:
…
