…
dir ___el_dvae_2020/teacher_nextitnet-T-3-al-0.5-dal-0.75-sr-0.8_04-01_12:44_0/auxiliary_nextitnet_logs/tb_vis does not exist! Create one.
WARNING [04-01 12:45:52] get_exist_path in utils:
dir ___el_dvae_2020/teacher_nextitnet-T-3-al-0.5-dal-0.75-sr-0.8_04-01_12:44_0/auxiliary_nextitnet_logs/checkpoint does not exist! Create one.
INFO    [04-01 12:45:52] load_state_from_given_path in utils:
checkpoint epoch: 29
INFO    [04-01 12:45:52] load_state_from_given_path in utils:
Loading model's parameters
INFO    [04-01 12:45:52] load_state_from_given_path in utils:
Loading optimizer's parameters
DEBUG   [04-01 12:45:52] _generate_auxliary_trainer in DVAEDistillSched:
auxiliary model: 
NextItNet(
  (item_embedding): Embedding(29352, 64, padding_idx=0)
  (residual_blocks): Sequential(
    (0): ResidualBlock_b(
      (conv1): Conv2d(64, 64, kernel_size=(1, 3), stride=(1, 1))
      (ln1): LayerNorm((64,), eps=1e-08, elementwise_affine=True)
      (conv2): Conv2d(64, 64, kernel_size=(1, 3), stride=(1, 1), dilation=(2, 2))
      (ln2): LayerNorm((64,), eps=1e-08, elementwise_affine=True)
    )
    (1): ResidualBlock_b(
      (conv1): Conv2d(64, 64, kernel_size=(1, 3), stride=(1, 1))
      (ln1): LayerNorm((64,), eps=1e-08, elementwise_affine=True)
      (conv2): Conv2d(64, 64, kernel_size=(1, 3), stride=(1, 1), dilation=(2, 2))
      (ln2): LayerNorm((64,), eps=1e-08, elementwise_affine=True)
    )
    (2): ResidualBlock_b(
      (conv1): Conv2d(64, 64, kernel_size=(1, 3), stride=(1, 1))
      (ln1): LayerNorm((64,), eps=1e-08, elementwise_affine=True)
      (conv2): Conv2d(64, 64, kernel_size=(1, 3), stride=(1, 1), dilation=(2, 2))
      (ln2): LayerNorm((64,), eps=1e-08, elementwise_affine=True)
    )
    (3): ResidualBlock_b(
      (conv1): Conv2d(64, 64, kernel_size=(1, 3), stride=(1, 1))
      (ln1): LayerNorm((64,), eps=1e-08, elementwise_affine=True)
      (conv2): Conv2d(64, 64, kernel_size=(1, 3), stride=(1, 1), dilation=(2, 2))
      (ln2): LayerNorm((64,), eps=1e-08, elementwise_affine=True)
    )
    (4): ResidualBlock_b(
      (conv1): Conv2d(64, 64, kernel_size=(1, 3), stride=(1, 1))
      (ln1): LayerNorm((64,), eps=1e-08, elementwise_affine=True)
      (conv2): Conv2d(64, 64, kernel_size=(1, 3), stride=(1, 1), dilation=(2, 2))
      (ln2): LayerNorm((64,), eps=1e-08, elementwise_affine=True)
    )
  )
  (final_layer): Linear(in_features=64, out_features=64, bias=True)
  (loss_fct): CrossEntropyLoss()
  (reg_loss): RegLoss()
)
INFO    [04-01 12:45:52] assert_model_device in utils:
model auxiliary_nextitnet has 7.657958984375 MB params.
INFO    [04-01 12:45:52] __init__ in BasicTrainer:
457216 iter per epoch
DEBUG   [04-01 12:45:52] generate_model in utils:
model_code_list=['prior']
INFO    [04-01 12:45:52] load_model_config in utils:
…
WARNING [04-01 12:46:03] get_exist_path in utils:
dir ___el_dvae_2020/teacher_nextitnet-T-3-al-0.5-dal-0.75-sr-0.8_04-01_12:44_0/teacher_nextitnet_logs/tb_vis does not exist! Create one.
WARNING [04-01 12:46:03] get_exist_path in utils:
dir ___el_dvae_2020/teacher_nextitnet-T-3-al-0.5-dal-0.75-sr-0.8_04-01_12:44_0/teacher_nextitnet_logs/checkpoint does not exist! Create one.
WARNING [04-01 12:46:03] get_path in utils:
Path is None
WARNING [04-01 12:46:03] load_state_from_given_path in utils:
Not given any path.
DEBUG   [04-01 12:46:03] _generate_teacher_trainer in DVAEDistillSched:
prior model: 
PriorModel(
  (observed_embedding): Embedding(29352, 64, padding_idx=0)
  (prior_item_embedding): Embedding(29352, 64, padding_idx=0)
)
DEBUG   [04-01 12:46:03] _generate_teacher_trainer in DVAEDistillSched:
teacher model: 
NextItNet(
  (item_embedding): Embedding(29352, 64, padding_idx=0)
  (residual_blocks): Sequential(
    (0): ResidualBlock_b(
      (conv1): Conv2d(64, 64, kernel_size=(1, 3), stride=(1, 1))
      (ln1): LayerNorm((64,), eps=1e-08, elementwise_affine=True)
      (conv2): Conv2d(64, 64, kernel_size=(1, 3), stride=(1, 1), dilation=(2, 2))
      (ln2): LayerNorm((64,), eps=1e-08, elementwise_affine=True)
    )
    (1): ResidualBlock_b(
      (conv1): Conv2d(64, 64, kernel_size=(1, 3), stride=(1, 1))
      (ln1): LayerNorm((64,), eps=1e-08, elementwise_affine=True)
      (conv2): Conv2d(64, 64, kernel_size=(1, 3), stride=(1, 1), dilation=(2, 2))
      (ln2): LayerNorm((64,), eps=1e-08, elementwise_affine=True)
    )
    (2): ResidualBlock_b(
      (conv1): Conv2d(64, 64, kernel_size=(1, 3), stride=(1, 1))
      (ln1): LayerNorm((64,), eps=1e-08, elementwise_affine=True)
      (conv2): Conv2d(64, 64, kernel_size=(1, 3), stride=(1, 1), dilation=(2, 2))
      (ln2): LayerNorm((64,), eps=1e-08, elementwise_affine=True)
    )
    (3): ResidualBlock_b(
      (conv1): Conv2d(64, 64, kernel_size=(1, 3), stride=(1, 1))
      (ln1): LayerNorm((64,), eps=1e-08, elementwise_affine=True)
      (conv2): Conv2d(64, 64, kernel_size=(1, 3), stride=(1, 1), dilation=(2, 2))
      (ln2): LayerNorm((64,), eps=1e-08, elementwise_affine=True)
    )
    (4): ResidualBlock_b(
      (conv1): Conv2d(64, 64, kernel_size=(1, 3), stride=(1, 1))
      (ln1): LayerNorm((64,), eps=1e-08, elementwise_affine=True)
      (conv2): Conv2d(64, 64, kernel_size=(1, 3), stride=(1, 1), dilation=(2, 2))
      (ln2): LayerNorm((64,), eps=1e-08, elementwise_affine=True)
    )
  )
  (final_layer): Linear(in_features=64, out_features=64, bias=True)
  (loss_fct): CrossEntropyLoss()
  (reg_loss): RegLoss()
)
INFO    [04-01 12:46:03] assert_model_device in utils:
model teacher_nextitnet has 7.657958984375 MB params.
INFO    [04-01 12:46:03] assert_model_device in utils:
model auxiliary_nextitnet has 7.657958984375 MB params.
INFO    [04-01 12:46:03] assert_model_device in utils:
model prior has 14.33203125 MB params.
…
