…
WARNING [04-01 00:38:11] get_exist_path in utils:
dir ___el_ensemble_distill_partial_trained_2020/ed_partial_nextitnet-en-0.5-T-1-al-0.75-sr-0.8_04-01_00:37_0/teacher1_nextitnet_logs/checkpoint does not exist! Create one.
INFO    [04-01 00:38:11] load_state_from_given_path in utils:
checkpoint epoch: 29
INFO    [04-01 00:38:11] load_state_from_given_path in utils:
Loading model's parameters
INFO    [04-01 00:38:11] load_state_from_given_path in utils:
Loading optimizer's parameters
DEBUG   [04-01 00:38:11] _generate_teacher_trainer in EnsembleDistillSched:
teacher1_nextitnet: 
NextItNet(
  (item_embedding): Embedding(29352, 64, padding_idx=0)
  (residual_blocks): Sequential(
    (0): ResidualBlock_b(
      (conv1): Conv2d(64, 64, kernel_size=(1, 3), stride=(1, 1))
      (ln1): LayerNorm((64,), eps=1e-08, elementwise_affine=True)
      (conv2): Conv2d(64, 64, kernel_size=(1, 3), stride=(1, 1), dilation=(2, 2))
      (ln2): LayerNorm((64,), eps=1e-08, elementwise_affine=True)
    )
    (1): ResidualBlock_b(
      (conv1): Conv2d(64, 64, kernel_size=(1, 3), stride=(1, 1))
      (ln1): LayerNorm((64,), eps=1e-08, elementwise_affine=True)
      (conv2): Conv2d(64, 64, kernel_size=(1, 3), stride=(1, 1), dilation=(2, 2))
      (ln2): LayerNorm((64,), eps=1e-08, elementwise_affine=True)
    )
    (2): ResidualBlock_b(
      (conv1): Conv2d(64, 64, kernel_size=(1, 3), stride=(1, 1))
      (ln1): LayerNorm((64,), eps=1e-08, elementwise_affine=True)
      (conv2): Conv2d(64, 64, kernel_size=(1, 3), stride=(1, 1), dilation=(2, 2))
      (ln2): LayerNorm((64,), eps=1e-08, elementwise_affine=True)
    )
    (3): ResidualBlock_b(
      (conv1): Conv2d(64, 64, kernel_size=(1, 3), stride=(1, 1))
      (ln1): LayerNorm((64,), eps=1e-08, elementwise_affine=True)
      (conv2): Conv2d(64, 64, kernel_size=(1, 3), stride=(1, 1), dilation=(2, 2))
      (ln2): LayerNorm((64,), eps=1e-08, elementwise_affine=True)
    )
    (4): ResidualBlock_b(
      (conv1): Conv2d(64, 64, kernel_size=(1, 3), stride=(1, 1))
      (ln1): LayerNorm((64,), eps=1e-08, elementwise_affine=True)
      (conv2): Conv2d(64, 64, kernel_size=(1, 3), stride=(1, 1), dilation=(2, 2))
      (ln2): LayerNorm((64,), eps=1e-08, elementwise_affine=True)
    )
  )
  (final_layer): Linear(in_features=64, out_features=64, bias=True)
  (loss_fct): CrossEntropyLoss()
  (reg_loss): RegLoss()
)
INFO    [04-01 00:38:11] assert_model_device in utils:
model teacher1_nextitnet has 7.657958984375 MB params.
INFO    [04-01 00:38:11] __init__ in BasicTrainer:
457216 iter per epoch
DEBUG   [04-01 00:38:11] generate_model in utils:
model_code_list=['nextitnet']
INFO    [04-01 00:38:11] load_model_config in utils:
…
