…
    "loss_type": "CE"
}
WARNING [02-27 14:33:18] get_exist_path in utils:
dir ___lfms_base_partial_2022/base_sasrec-rate-0.6-seed-2000_02-27_14:32_t1/sasrec_logs does not exist! Create one.
WARNING [02-27 14:33:20] get_exist_path in utils:
dir ___lfms_base_partial_2022/base_sasrec-rate-0.6-seed-2000_02-27_14:32_t1/sasrec_logs/tb_vis does not exist! Create one.
WARNING [02-27 14:33:20] get_exist_path in utils:
dir ___lfms_base_partial_2022/base_sasrec-rate-0.6-seed-2000_02-27_14:32_t1/sasrec_logs/checkpoint does not exist! Create one.
INFO    [02-27 14:33:20] __init__ in BasicSched:
SASRecModel(
  (item_embedding): Embedding(3647, 64, padding_idx=0)
  (position_embedding): Embedding(20, 64)
  (trm_encoder): TransformerEncoder(
    (layer): ModuleList(
      (0): TransformerLayer(
        (multi_head_attention): MultiHeadAttention(
          (query): Linear(in_features=64, out_features=64, bias=True)
          (key): Linear(in_features=64, out_features=64, bias=True)
          (value): Linear(in_features=64, out_features=64, bias=True)
          (attn_dropout): Dropout(p=0.35, inplace=False)
          (dense): Linear(in_features=64, out_features=64, bias=True)
          (LayerNorm): LayerNorm((64,), eps=1e-12, elementwise_affine=True)
          (out_dropout): Dropout(p=0.35, inplace=False)
        )
        (feed_forward): FeedForward(
          (dense_1): Linear(in_features=64, out_features=128, bias=True)
          (dense_2): Linear(in_features=128, out_features=64, bias=True)
          (LayerNorm): LayerNorm((64,), eps=1e-12, elementwise_affine=True)
          (dropout): Dropout(p=0.35, inplace=False)
        )
      )
      (1): TransformerLayer(
        (multi_head_attention): MultiHeadAttention(
          (query): Linear(in_features=64, out_features=64, bias=True)
          (key): Linear(in_features=64, out_features=64, bias=True)
          (value): Linear(in_features=64, out_features=64, bias=True)
          (attn_dropout): Dropout(p=0.35, inplace=False)
          (dense): Linear(in_features=64, out_features=64, bias=True)
          (LayerNorm): LayerNorm((64,), eps=1e-12, elementwise_affine=True)
          (out_dropout): Dropout(p=0.35, inplace=False)
        )
        (feed_forward): FeedForward(
          (dense_1): Linear(in_features=64, out_features=128, bias=True)
          (dense_2): Linear(in_features=128, out_features=64, bias=True)
          (LayerNorm): LayerNorm((64,), eps=1e-12, elementwise_affine=True)
          (dropout): Dropout(p=0.35, inplace=False)
        )
      )
    )
  )
  (LayerNorm): LayerNorm((64,), eps=1e-12, elementwise_affine=True)
  (dropout): Dropout(p=0.35, inplace=False)
  (loss_fct): CrossEntropyLoss()
)
WARNING [02-27 14:33:20] get_path in utils:
Path is None
WARNING [02-27 14:33:20] load_state_from_given_path in utils:
Not given any path.
INFO    [02-27 14:33:20] assert_model_device in utils:
model sasrec has 1.151123046875 MB params.
INFO    [02-27 14:33:20] __init__ in BasicTrainer:
…
