…
dir ___movies_dvae_2022/teacher_sasrec-T-3.0-al-0.25-dal-0.25-sr-0.8_03-26_04:41_t1/auxiliary_sasrec_logs/tb_vis does not exist! Create one.
WARNING [03-26 04:42:17] get_exist_path in utils:
dir ___movies_dvae_2022/teacher_sasrec-T-3.0-al-0.25-dal-0.25-sr-0.8_03-26_04:41_t1/auxiliary_sasrec_logs/checkpoint does not exist! Create one.
INFO    [03-26 04:42:17] load_state_from_given_path in utils:
checkpoint epoch: 59
INFO    [03-26 04:42:17] load_state_from_given_path in utils:
Loading model's parameters
INFO    [03-26 04:42:17] load_state_from_given_path in utils:
Loading optimizer's parameters
DEBUG   [03-26 04:42:17] _generate_auxliary_trainer in DVAEDistillSched:
auxiliary model: 
SASRecModel(
  (item_embedding): Embedding(21036, 64, padding_idx=0)
  (position_embedding): Embedding(10, 64)
  (trm_encoder): TransformerEncoder(
    (layer): ModuleList(
      (0): TransformerLayer(
        (multi_head_attention): MultiHeadAttention(
          (query): Linear(in_features=64, out_features=64, bias=True)
          (key): Linear(in_features=64, out_features=64, bias=True)
          (value): Linear(in_features=64, out_features=64, bias=True)
          (attn_dropout): Dropout(p=0.35, inplace=False)
          (dense): Linear(in_features=64, out_features=64, bias=True)
          (LayerNorm): LayerNorm((64,), eps=1e-12, elementwise_affine=True)
          (out_dropout): Dropout(p=0.35, inplace=False)
        )
        (feed_forward): FeedForward(
          (dense_1): Linear(in_features=64, out_features=128, bias=True)
          (dense_2): Linear(in_features=128, out_features=64, bias=True)
          (LayerNorm): LayerNorm((64,), eps=1e-12, elementwise_affine=True)
          (dropout): Dropout(p=0.35, inplace=False)
        )
      )
      (1): TransformerLayer(
        (multi_head_attention): MultiHeadAttention(
          (query): Linear(in_features=64, out_features=64, bias=True)
          (key): Linear(in_features=64, out_features=64, bias=True)
          (value): Linear(in_features=64, out_features=64, bias=True)
          (attn_dropout): Dropout(p=0.35, inplace=False)
          (dense): Linear(in_features=64, out_features=64, bias=True)
          (LayerNorm): LayerNorm((64,), eps=1e-12, elementwise_affine=True)
          (out_dropout): Dropout(p=0.35, inplace=False)
        )
        (feed_forward): FeedForward(
          (dense_1): Linear(in_features=64, out_features=128, bias=True)
          (dense_2): Linear(in_features=128, out_features=64, bias=True)
          (LayerNorm): LayerNorm((64,), eps=1e-12, elementwise_affine=True)
          (dropout): Dropout(p=0.35, inplace=False)
        )
      )
    )
  )
  (LayerNorm): LayerNorm((64,), eps=1e-12, elementwise_affine=True)
  (dropout): Dropout(p=0.35, inplace=False)
  (loss_fct): CrossEntropyLoss()
)
INFO    [03-26 04:42:17] assert_model_device in utils:
model auxiliary_sasrec has 5.39404296875 MB params.
INFO    [03-26 04:42:17] __init__ in BasicTrainer:
451328 iter per epoch
DEBUG   [03-26 04:42:17] generate_model in utils:
model_code_list=['prior']
INFO    [03-26 04:42:17] load_model_config in utils:
…
WARNING [03-26 04:42:24] get_exist_path in utils:
dir ___movies_dvae_2022/teacher_sasrec-T-3.0-al-0.25-dal-0.25-sr-0.8_03-26_04:41_t1/teacher_sasrec_logs/tb_vis does not exist! Create one.
WARNING [03-26 04:42:24] get_exist_path in utils:
dir ___movies_dvae_2022/teacher_sasrec-T-3.0-al-0.25-dal-0.25-sr-0.8_03-26_04:41_t1/teacher_sasrec_logs/checkpoint does not exist! Create one.
WARNING [03-26 04:42:24] get_path in utils:
Path is None
WARNING [03-26 04:42:24] load_state_from_given_path in utils:
Not given any path.
DEBUG   [03-26 04:42:24] _generate_teacher_trainer in DVAEDistillSched:
prior model: 
PriorModel(
  (observed_embedding): Embedding(21036, 64, padding_idx=0)
  (prior_item_embedding): Embedding(21036, 64, padding_idx=0)
)
DEBUG   [03-26 04:42:24] _generate_teacher_trainer in DVAEDistillSched:
teacher model: 
SASRecModel(
  (item_embedding): Embedding(21036, 64, padding_idx=0)
  (position_embedding): Embedding(10, 64)
  (trm_encoder): TransformerEncoder(
    (layer): ModuleList(
      (0): TransformerLayer(
        (multi_head_attention): MultiHeadAttention(
          (query): Linear(in_features=64, out_features=64, bias=True)
          (key): Linear(in_features=64, out_features=64, bias=True)
          (value): Linear(in_features=64, out_features=64, bias=True)
          (attn_dropout): Dropout(p=0.35, inplace=False)
          (dense): Linear(in_features=64, out_features=64, bias=True)
          (LayerNorm): LayerNorm((64,), eps=1e-12, elementwise_affine=True)
          (out_dropout): Dropout(p=0.35, inplace=False)
        )
        (feed_forward): FeedForward(
          (dense_1): Linear(in_features=64, out_features=128, bias=True)
          (dense_2): Linear(in_features=128, out_features=64, bias=True)
          (LayerNorm): LayerNorm((64,), eps=1e-12, elementwise_affine=True)
          (dropout): Dropout(p=0.35, inplace=False)
        )
      )
      (1): TransformerLayer(
        (multi_head_attention): MultiHeadAttention(
          (query): Linear(in_features=64, out_features=64, bias=True)
          (key): Linear(in_features=64, out_features=64, bias=True)
          (value): Linear(in_features=64, out_features=64, bias=True)
          (attn_dropout): Dropout(p=0.35, inplace=False)
          (dense): Linear(in_features=64, out_features=64, bias=True)
          (LayerNorm): LayerNorm((64,), eps=1e-12, elementwise_affine=True)
          (out_dropout): Dropout(p=0.35, inplace=False)
        )
        (feed_forward): FeedForward(
          (dense_1): Linear(in_features=64, out_features=128, bias=True)
          (dense_2): Linear(in_features=128, out_features=64, bias=True)
          (LayerNorm): LayerNorm((64,), eps=1e-12, elementwise_affine=True)
          (dropout): Dropout(p=0.35, inplace=False)
        )
      )
    )
  )
  (LayerNorm): LayerNorm((64,), eps=1e-12, elementwise_affine=True)
  (dropout): Dropout(p=0.35, inplace=False)
  (loss_fct): CrossEntropyLoss()
)
INFO    [03-26 04:42:24] assert_model_device in utils:
model teacher_sasrec has 5.39404296875 MB params.
INFO    [03-26 04:42:24] assert_model_device in utils:
model auxiliary_sasrec has 5.39404296875 MB params.
INFO    [03-26 04:42:24] assert_model_device in utils:
model prior has 10.271484375 MB params.
…
